Databricks_FreeEdition_Hackathon/Front_End/cardio_modelX.pt (torch, 4369 bytes, 5 tensors)

model.0.weight f4 [16, 10]
0	0xbfe45931	-1.7839719
1	0xbe11bfb9	-0.14233293
2	0xbef98110	-0.4873128
3	0xbf35c655	-0.71005756
4	0xbd83b3df	-0.06430792
5	0xbdc3c57a	-0.0955915
6	0xbf3b48cd	-0.7315796
7	0xbef47c44	-0.47751057
8	0xbf4a7d15	-0.7909711
9	0x3f2822f5	0.6567834
10	0xbf651834	-0.89490056
11	0x3ea97987	0.3310053
12	0x3fbb3bee	1.4627664
13	0x3f1649a7	0.58706135
14	0x3f669792	0.9007503
15	0x3dc908ea	0.09816153
16	0xbec356c8	-0.38152146
17	0xbf48f1e1	-0.7849408
18	0x3daddcb7	0.08489364
19	0xbe5842f4	-0.2111929
20	0x3f1f64bf	0.622631
21	0xbe78fefe	-0.24316022
22	0xbf02adbd	-0.51046354
23	0xbeb1de3c	-0.34739864
24	0xbfa5b4fb	-1.2945856
25	0xbee63736	-0.44963998
26	0xbec4d10d	-0.38440743
27	0xbf0b96fc	-0.5452726
28	0x3f76f362	0.9646512
29	0xbee387f3	-0.4443966
30	0x3e4814e9	0.19539227
31	0x3f46bc56	0.7763113
32	0x3ea07d08	0.3134539
33	0xbe794193	-0.24341421
34	0xbee4d687	-0.4469492
35	0xbf275615	-0.65365726
36	0xbf597ac0	-0.84952927
37	0xbf1f025d	-0.6211298
38	0x3ea6b803	0.32562265
39	0xbf97f289	-1.1870891
40	0x3f2267b8	0.6343951
41	0xbedb9e1e	-0.4289407
42	0x3f0ce0ef	0.5503072
43	0x3ee1c777	0.44097492
44	0xbfa9d788	-1.32689
45	0xbf78cfb9	-0.9719196
46	0x3f658e4a	0.8967024
47	0xbf3b53c2	-0.7317468
48	0xbeecb197	-0.4622924
49	0xbe286b51	-0.16447188
50	0x3e13095e	0.14359042
51	0xbf8edf65	-1.1161925
52	0xbe900702	-0.28130347
53	0x3f4c820d	0.7988594
54	0x3f03fec5	0.5156062
55	0x3e5e2ec5	0.21697529
56	0x3f4f1339	0.80888706
57	0xbeb3e4ca	-0.3513549
58	0xbea4ebb1	-0.32211068
59	0xbf6ee0f6	-0.93312013
60	0xbee0ae43	-0.4388295
61	0x3eff7620	0.4989481
62	0xbe9c2d6e	-0.3050341
63	0xbf8a94ab	-1.082662
64	0xbe8bdc19	-0.2731636
65	0xbe96b683	-0.2943612
66	0xbe9a9fad	-0.30199948
67	0x3ee36896	0.4441573
68	0xbf50febb	-0.8163869
69	0xbed05340	-0.40688515
70	0x4002f007	2.0459
71	0x3f8dcea3	1.1078686
72	0xbe796625	-0.24355371
73	0x3dca4d08	0.09877974
74	0x3f87d999	1.061328
75	0x3e9fb5a8	0.3119328
76	0x3ca5ddb7	0.020247323
77	0x3dcc5a0e	0.09978114
78	0x3e02469b	0.12722246
79	0xbed1081a	-0.40826494
80	0xbf866881	-1.0500642
81	0x3edb50c5	0.4283506
82	0xbe62739b	-0.22114412
83	0xbf9a5764	-1.205792
84	0xbf45f4b9	-0.7732654
85	0x3f1a2f4b	0.60228413
86	0x3f4c49f2	0.7980033
87	0x3da68bc4	0.08132127
88	0x3f1a8daf	0.6037244
89	0xbecf4595	-0.40482774
90	0xbf150bf9	-0.58221394
91	0xbf6e6b3f	-0.93132395
92	0xbd6f332d	-0.058398414
93	0x3ef2a270	0.47389555
94	0xbf80e10a	-1.0068676
95	0xbf83dbe5	-1.0301481
96	0x3f0e6bd7	0.556333
97	0xbf1a32b8	-0.6023364
98	0xbd3cd203	-0.04609872
99	0x3e7b4023	0.24536185
100	0x3e7f11d3	0.24909143
101	0x3efceb6e	0.4939837
102	0xbf62cb9b	-0.8859193
103	0x3eb473a9	0.35244492
104	0xbfeba42a	-1.8409474
105	0xbf57fba7	-0.84368366
106	0xbf16c249	-0.58890206
107	0xbdd549b0	-0.104144454
108	0x3de3e762	0.11128117
109	0xbf21c9f5	-0.63198787
110	0x3f1fdaca	0.6244322
111	0xbf94ef4f	-1.1635531
112	0xbde9d68e	-0.11417876
113	0xbfb639e4	-1.4236417
114	0x3e0584da	0.1303896
115	0x3f7b85dd	0.98251134
116	0xbe8d6ed1	-0.2762361
117	0xbbc3a604	-0.0059707183
118	0x3f0aa917	0.5416426
119	0xbf696ff8	-0.91186476
120	0x3f0207cd	0.50793153
121	0x3f221ae5	0.6332229
122	0x3debdd40	0.115168095
123	0x3fb75b36	1.432471
124	0xbf72cc1b	-0.9484269
125	0xbeb8f21a	-0.3612221
126	0xbe6692db	-0.22516958
127	0x3f3004be	0.68757236
128	0x3eccfb18	0.4003532
129	0xbf85efdf	-1.0463828
130	0xbf7ed18d	-0.995385
131	0xbf7b0f36	-0.98070085
132	0xbe83d150	-0.2574563
133	0xbf5b7a4e	-0.857335
134	0xbf2c52a3	-0.67313594
135	0xbf1966c2	-0.5992242
136	0x3f086898	0.532846
137	0x3f679794	0.90465665
138	0x3df40556	0.1191508
139	0xbed6c9dc	-0.4195088
140	0xbf424836	-0.75891435
141	0xbf4cde87	-0.8002705
142	0x3e80687e	0.2507972
143	0x3e85360f	0.26017806
144	0x3e31de67	0.17369996
145	0xbed50ed3	-0.41612872
146	0x3d921de4	0.071346074
147	0xbfc1ae4e	-1.5131319
148	0xbf0ca6b6	-0.5494188
149	0xbe093f9c	-0.13403171
150	0xbf310acb	-0.69157094
151	0x3da05467	0.078285985
152	0xbec335a1	-0.38126853
153	0x3ec4c3a3	0.3843051
154	0x3f5a1b29	0.85197693
155	0xbf3aefbc	-0.73022056
156	0xbe9d4351	-0.3071542
157	0xbd1c8435	-0.03821202
158	0x3eda7c94	0.4267317
159	0xbe787049	-0.24261583

model.0.bias f4 [16]
0	0xbe61c088	-0.22046101
1	0xbf117e57	-0.56833404
2	0xbeb52b9b	-0.3538483
3	0xbe44f690	-0.19234681
4	0xbe5fc72a	-0.21853319
5	0x3e0f9370	0.14021087
6	0x3ee1adc7	0.44077894
7	0xbf35ba98	-0.70987844
8	0x3e4fbf39	0.2028779
9	0x3de53c55	0.11193148
10	0xbc163f29	-0.009170332
11	0x3c9e9e64	0.019362636
12	0xbf148230	-0.5801115
13	0xbf454755	-0.7706197
14	0x3f40af3d	0.7526739
15	0x3f7e6a59	0.99381024

model.2.weight f4 [8, 16]
0	0x3f30915d	0.68971807
1	0x3f89216a	1.0713322
2	0xbee321ff	-0.44361874
3	0x3faa8001	1.3320314
4	0xc07817b2	-3.8764462
5	0x3ff8c8a3	1.943623
6	0xbdc4661f	-0.095897906
7	0x3ed2fcca	0.41208488
8	0xbf60c7f7	-0.8780512
9	0x3faa949b	1.3326601
10	0x3fbeb4a6	1.489888
11	0x3c9c211b	0.019058755
12	0x3f186c09	0.5953985
13	0x3ec7ce1e	0.39024442
14	0xbf3345ec	-0.7002857
15	0x3de8fcce	0.11376344
16	0x3f0c2f0b	0.5475928
17	0x3f3ac4a5	0.72956306
18	0x3ff2ebbb	1.8978189
19	0x3f110510	0.5664835
20	0x3d56035b	0.052249294
21	0x3ee160da	0.44019204
22	0xbe46bdbb	-0.19408314
23	0xbf197e67	-0.599585
24	0xc04cbb8c	-3.198947
25	0xbfadbfb0	-1.3574123
26	0xbeae27cf	-0.34014747
27	0xc0316345	-2.771684
28	0xbf153d41	-0.5829659
29	0xbfa142a2	-1.259846
30	0x3feaa3c6	1.833123
31	0xbf11c4a1	-0.56940657
32	0x3fa5625e	1.2920644
33	0x4021e194	2.5293932
34	0xbf0343eb	-0.5127551
35	0xbf1099a7	-0.56484455
36	0xbf051a25	-0.5199302
37	0x3e9a88df	0.3018255
38	0xbfd9af1c	-1.7006564
39	0xc0d8b220	-6.771744
40	0xbf74ea36	-0.9566988
41	0x3ffe6483	1.9874424
42	0x3fc65d7f	1.5497283
43	0x3ff85e18	1.9403715
44	0xc083eb2e	-4.1224585
45	0x3ec90ae2	0.39266115
46	0xbe1ea75a	-0.15493527
47	0x3f0c6be7	0.54852146
48	0xbe4c194a	-0.19931522
49	0xbf21baaa	-0.6317545
50	0x3fb35991	1.4011708
51	0xbfb7ba11	-1.4353658
52	0x3fc09ed3	1.5048469
53	0xbea8e249	-0.32985142
54	0x3f92f548	1.1481104
55	0x3d76a530	0.06021613
56	0x3f0152cf	0.5051698
57	0xbf79dd68	-0.97603464
58	0xbf107117	-0.5642256
59	0xbe8972d2	-0.26845413
60	0x3eb5d199	0.35511473
61	0xbfae51f6	-1.3618762
62	0x3fa25f07	1.268525
63	0x3f853c4e	1.0409029
64	0xc0213b14	-2.5192308
65	0xbe4c8334	-0.19971925
66	0x3fb98cf3	1.4496139
67	0xbfc32cce	-1.5248048
68	0x3fa7eeab	1.3119711
69	0xbee31834	-0.44354403
70	0x3f6c6f0c	0.92356944
71	0x3dd62af2	0.1045741
72	0x3f8da3e9	1.1065646
73	0xbe8571a5	-0.26063266
74	0x3e13e2c5	0.14441974
75	0xbe4b8d14	-0.19878036
76	0x3df5cbdf	0.12001776
77	0xbfbf9a86	-1.4969032
78	0x3faf8ab1	1.37142
79	0x3fa23aaa	1.2674153
80	0xc0105fb8	-2.2558422
81	0xbe91ced5	-0.28478113
82	0x3fb20e87	1.3910683
83	0xbfc8ae59	-1.5678207
84	0xbdf77e4a	-0.120846346
85	0xbed50da5	-0.41611972
86	0xbd97bc80	-0.074090004
87	0x3fd218c9	1.6413814
88	0xbfc4b48d	-1.53676
89	0x3e18d39d	0.14924474
90	0xbf38a834	-0.7213166
91	0xc010a912	-2.2603192
92	0x3f047347	0.517384
93	0x3fabb831	1.3415586
94	0x3ef24c56	0.47323865
95	0x3f2eb572	0.68245614
96	0x3f0fb754	0.5613911
97	0xc0164372	-2.3478665
98	0x3f9e9b0f	1.239107
99	0xbf1328be	-0.5748404
100	0x3f960124	1.1719098
101	0xbeb3b87a	-0.35101682
102	0x3f9c91d1	1.2232
103	0x3f637ff5	0.8886712
104	0x3f520754	0.8204243
105	0xbfc99033	-1.5747131
106	0xbea2159b	-0.3165711
107	0x3ec5448f	0.3852887
108	0x3f4ec7e5	0.80773765
109	0xc0603c5b	-3.5036838
110	0x3f8f791e	1.1208837
111	0x3e85ad8c	0.26108968
112	0x3f634194	0.8877194
113	0x3fea6396	1.8311641
114	0xbf252c47	-0.64520687
115	0xbda0885d	-0.07838509
116	0xbf13bda6	-0.57711256
117	0x3fd0d7a6	1.6315811
118	0xbeec4c38	-0.461519
119	0xbe20ce3e	-0.15703675
120	0xbf908ede	-1.12936
121	0x40077220	2.1163406
122	0x3fcc5a9d	1.5965153
123	0x3f1bba60	0.6083126
124	0xc06d9250	-3.7120552
125	0x3f57265e	0.8404292
126	0xbee1d241	-0.44105724
127	0xbd173142	-0.03691221

model.2.bias f4 [8]
0	0x3f606ca4	0.8766577
1	0xbf685d67	-0.9076752
2	0x3e832cc7	0.256201
3	0x3eb89f6e	0.36059135
4	0xbe183861	-0.14865257
5	0x3ef4b70b	0.477959
6	0xbe57fb53	-0.21091966
7	0x3ea2c41a	0.3179024

model.4.weight f4 [1, 8]
0	0xc04893ab	-3.134013
1	0x411e972d	9.911908
2	0xc0ac924e	-5.3928595
3	0x404f5719	3.239691
4	0x402bc2ce	2.683765
5	0x40c89595	6.2682595
6	0x404bbb87	3.1833208
7	0xc04c37d0	-3.1909065
