Gemma3n_Challenge/DeployTFLITE_ONNX/cardio_stroke_model.onnx (onnx, 4578 bytes, 5 tensors)

model.0.weight f4 [32, 10]
0.23722357 -0.028624568 0.0669243 -0.30490738 0.16882911 -0.104255505 0.2534275 -0.2390005
-0.14874972 -0.26142046 0.056338746 -0.051327985 -0.1226347 0.1819806 0.06829565 -0.021526357
-0.28418723 -0.299931 -0.3076285 -0.20260796 -0.20731969 0.047123834 -0.13396737 -0.21181752
-0.09376216 0.19035256 0.18355872 -0.2660738 0.25161317 0.20180519 -0.29211378 0.2823335
0.26133928 -0.008986618 -0.05257931 0.28724015 -0.18719919 -0.14364122 0.20452105 -0.15257792
0.050488506 -0.15715373 -0.24935715 -0.17445056 0.183907 0.29175097 0.15019904 0.10369355
-0.053697146 -0.10127327 0.025556725 0.058792386 0.16657609 0.14101066 0.26981118 0.15824838
-0.09934596 0.22812238 -0.2073865 -0.14137678 -0.18548656 0.081393756 -0.09247058 0.13472448
0.29940614 -0.124895826 -0.28696004 0.14270496 0.28723165 0.05455555 -0.21623872 -0.25972736
-0.19397734 0.065399215 0.103220716 0.15366481 -0.014364475 -0.21793936 0.013390001 0.28017
0.00479894 0.05263231 -0.09178392 0.06316591 0.058030035 -0.27800146 0.06615188 -0.15846401
0.07341377 -0.22409306 -0.22805287 -0.11930739 0.06415241 0.16120313 -0.052715547 -0.14472464
-0.15478495 0.13871783 -0.10452516 0.048387673 -0.24351248 0.16375245 -0.30342236 -0.2863233
-0.16980219 -0.29727763 0.028755339 -0.0013701079 -0.22067012 0.23078355 -0.013239136 -0.13146612
-0.20778123 -0.0074238777 0.27964035 -0.14170986 -0.19173327 0.10834988 0.0011492395 -0.29130414
-0.26771024 0.0090090865 0.10783739 0.17129873 -0.19234574 -0.09630831 -0.17868002 -0.18995501
0.058044814 -0.18107451 0.04786911 -0.045199234 0.30074587 0.22387348 -0.15917525 0.058520664
0.077687666 -0.1781944 0.12946206 0.21384905 -0.28539556 0.25604528 0.19636287 0.2966678
0.1366461 0.24246213 -0.11152105 -0.19636238 0.06423173 0.16422322 -0.19675265 0.20369306
0.051845342 0.28350076 -0.2678525 -0.113506116 -0.024171576 0.09362743 -0.06104265 0.17829041
0.2736561 0.2766588 0.18979543 0.11592331 0.25003588 -0.06772114 -0.1790923 0.11396255
0.028437326 -0.23778458 0.2921446 -0.046506766 -0.26221207 -0.1829205 0.15506673 0.010712212
0.24360639 0.30841374 -0.13834535 0.15229553 -0.10744514 -0.256094 -0.056220226 -0.23955521
-0.21499924 -0.097842366 -0.18757533 -0.18093845 0.1352115 0.3084537 0.2785432 0.04815934
-0.31243643 -0.0022449489 0.31603137 -0.15482008 -0.31430033 0.07974959 0.049052086 0.23174271
0.19281691 0.10443099 0.30409637 -0.16045804 0.04954724 0.1418019 0.02974067 -0.07813279
-0.29096064 0.30349925 -0.16137904 -0.105280645 -0.15113094 0.008187323 -0.23008415 -0.12891605
0.008605386 0.087880254 0.2540189 0.2927215 -0.2941553 -0.031356566 0.08237649 0.1830884
0.24746418 -0.0002652758 -0.031057173 -0.26692674 -0.010750399 0.02759826 -0.07382263 -0.18244088
-0.057532694 -0.008761151 -0.08278916 0.096737534 -0.28685984 0.21732539 0.25515795 0.2320473
-0.17990498 0.22398698 0.06178118 0.21606664 0.20458254 0.28670296 -0.110168025 -0.23987553
0.15953013 0.2644583 0.1384944 -0.3144373 0.24078535 0.06879574 0.21484216 0.28037888
00000000: bcea 723e 127e eabc 9b0f 893d d21c 9cbe
00000010: 8ae1 2c3e e983 d5bd 40c1 813e 8cbc 74be
00000020: d951 18be e7d8 85be 75c3 663d 4b3d 52bd
00000030: e727 fbbd 1f59 3a3e 97de 8b3d 0b58 b0bc
00000040: fd80 91be 8e90 99be 7c81 9dbe 7678 4fbe
00000050: 9d4b 54be ec04 413d be2e 09be b1e6 58be
00000060: 6006 c0bd c8eb 423e d1f6 3b3e d33a 88be
00000070: 71d3 803e 05a6 4e3e f08f 95be 048e 903e
00000080: 43ce 853e 9c3c 13bc 675d 57bd 2411 933e
00000090: 25b1 3fbe af16 13be f76d 513e 633d 1cbe
000000a0: 09cd 4e3d e8ec 20be 7b57 7fbe 2ba3 32be
000000b0: 1e52 3c3e 6260 953e c7cd 193e 495d d43d
000000c0: 8af1 5bbd 5c68 cfbd 565c d13c 49d0 703d
000000d0: ec92 2a3e 1965 103e b124 8a3e dd0b 223e
000000e0: e575 cbbd ea98 693e 205d 54be 13c5 10be
000000f0: 30f0 3dbe c5b1 a63d 3761 bdbd 37f5 093e
00000100: c34b 993e 62c9 ffbd 6dec 92be 4021 123e
00000110: 0710 933e a475 5f3d af6d 5dbe fcfa 84be
00000120: ffa1 46be 06f0 853d 6265 d33d 4f5a 1d3e
00000130: fa58 6bbc 7f2b 5fbe bc61 5b3c 7172 8f3e
00000140: 6d40 9d3b fa94 573d 35f9 bbbd 215d 813d
00000150: e7b0 6d3d 3556 8ebe a37a 873d 6444 22be
00000160: f559 963d a778 65be b186 69be 6f57 f4bd
00000170: 5762 833d 6f12 253e 42ec 57bd b232 14be
00000180: f27f 1ebe 0c0c 0e3e 4911 d6bd 2732 463d
00000190: 565b 79be b9ae 273e 2d5a 9bbe f898 92be
000001a0: a0e0 2dbe c634 98be 5190 eb3c 3195 b3ba
000001b0: 59f7 61be 8652 6c3e f6e8 58bc 0e9f 06be
000001c0: 9ac4 54be 0044 f3bb 052d 8f3e 641c 11be
000001d0: ba55 44be 8be6 dd3d 14a2 963a d125 95be
000001e0: 5111 89be d99a 133c d9d9 dc3d ef68 2f3e
000001f0: 48f6 44be 4b3d c5bd e5f7 36be 9183 42be
00000200: 66c0 6d3d 996b 39be 6612 443d d522 39bd
00000210: 5dfb 993e 173f 653e d6fe 22be 5db3 6f3d
00000220: b61a 9f3d 9878 36be b491 043e 3ffb 5a3e
00000230: 5e1f 92be 5e18 833e 5913 493e d8e4 973e
00000240: f5ec 0b3e fe47 783e 2665 e4bd 3813 49be
00000250: ed8b 833d 222a 283e 8779 49be ea94 503e
00000260: c85b 543d 0327 913e f623 89be e575 e8bd
00000270: 7803 c6bc bdbf bf3d dc07 7abd c391 363e
00000280: a71c 8c3e 39a6 8d3e bc59 423e 3369 ed3d
00000290: b404 803e 62b1 8abd f963 37be 3365 e93d
000002a0: 65f5 e83c cd7d 73be fa93 953e e17d 3ebd
000002b0: a940 86be 834f 3bbe d0c9 1e3e 4682 2f3c
000002c0: f473 793e 68e8 9d3e 67aa 0dbe 5cf3 1b3e
000002d0: 330c dcbd c11e 83be 2e47 66bd f64d 75be
000002e0: c328 5cbe 9461 c8bd bf13 40be ee47 39be
000002f0: e274 0a3e a5ed 9d3e 379d 8e3e ba42 453d
00000300: abf7 9fbe fe1f 13bb ddce a13e 2889 1ebe
00000310: f9eb a0be c153 a33d d7ea 483d f64d 6d3e
00000320: cc71 453e eadf d53d 85b2 9b3e 1d4f 24be
00000330: 0cf2 4a3d 8434 113e b5a2 f33c 1604 a0bd
00000340: cbf8 94be 4164 9b3e 8c40 25be 619d d7bd
00000350: 12c2 1abe 1f24 063c 2e9b 6bbe 9202 04be
00000360: 9bfd 0c3c 90fa b33d c40e 823e 98df 953e
00000370: 869b 96be be6f 00bd 01b5 a83d 877b 3b3e
00000380: 4067 7d3e b714 8bb9 9d6b febc 9faa 88be
00000390: 7122 30bc bf15 e23c 5230 97bd c8d1 3abe
000003a0: 67a7 6bbd ee8a 0fbc 5d8d a9bd 541e c63d
000003b0: 4bdf 92be 8c8a 5e3e 10a4 823e cf9d 6d3e
000003c0: 0339 38be d85c 653e 430e 7d3d 9340 5d3e
000003d0: 167e 513e bbca 923e c69f e1bd eea1 75be
000003e0: de5b 233e 1467 873e 7ad1 0d3e edfd a0be
000003f0: 6f90 763e c8e4 8c3d 95ff 5b3e d28d 8f3e

model.0.bias f4 [32]
0.036029823 -0.17030793 0.17447002 -0.23665158 -0.3124842 0.24625334 0.21807824 -0.08083169
-0.14520276 0.2515383 0.19526437 -0.25369343 -0.20450345 -0.03942631 -0.14958401 -0.1098344
0.11431962 -0.30564153 0.082672864 -0.2908834 0.043686066 0.25824314 -0.21172504 -0.16323574
-0.07284371 0.25938013 -0.22805272 -0.1866369 0.23612876 0.059731692 -0.1040571 -0.08289799
00000000: 0294 133d 3465 2ebe 45a8 323e cb54 72be
00000010: eefd 9fbe d629 7c3e e74f 5f3e 168b a5bd
00000020: 08b0 14be a1c9 803e 62f3 473e 1be4 81be
00000030: 5a69 51be 7c7d 21bd 8d2c 19be dcf0 e0bd
00000040: 6820 ea3d 0c7d 9cbe 6450 a93d abee 94be
00000050: 29f0 323d 7238 843e 73ce 58be 4527 27be
00000060: 152f 95bd 79cd 843e a786 69be be1d 3fbe
00000070: bdcb 713e 38a9 743d e41b d5bd 6cc6 a9bd

model.2.weight f4 [16, 32]
0.012949366 0.05944722 -0.09837848 -0.04588715 0.036735445 -0.16993533 -0.077228114 -0.026191778
0.13291276 0.024500806 -0.14971444 -0.17016855 -0.102338344 -0.00267466 -0.12897481 0.16523513
-0.17125177 -0.13731875 -0.067529194 -0.084624335 0.06360969 -0.008760369 0.12625906 -0.10611651
0.13430105 0.1103757 -0.017615803 0.073887214 0.1322695 -0.03576495 -0.123169355 0.14167692
-0.132057 -0.13990736 0.056464955 0.11017675 0.019650947 0.15404779 -0.05326683 -0.1656842
-0.13878131 -0.17458121 0.1318432 0.07558824 -0.05740683 0.03847472 -0.16488323 0.15671776
-0.054554354 0.08266746 -0.1265006 0.0753535 0.014799192 -0.02594187 0.04964157 0.10420307
-0.14369942 -0.13109429 -0.13882883 0.031154085 -0.043852508 0.09733853 0.02540062 -0.10825607
-0.084430866 -0.04169988 0.06588087 -0.119929805 -0.15547808 -0.11496006 0.17323549 0.14591317
-0.1374493 0.00941392 -0.005703775 -0.021988453 -0.09365477 0.058021963 0.07934713 0.003242905
-0.1312019 -0.12921973 0.0027977077 -0.1646503 0.095764086 -0.100597695 0.04723625 0.0051039835
0.14584386 0.099636726 0.0061616795 -0.0578629 -0.0061059194 0.044314396 -0.033091873 -0.010746961
-0.15682046 -0.057046242 0.051322173 0.14800543 -0.14404324 0.16054392 -0.15866517 0.017604318
0.15066889 -0.12012703 -0.09935462 0.018090101 0.06694365 0.07595646 -0.04282581 -0.043371655
-0.16369654 0.102919 0.16265863 0.041721545 -0.06649023 -0.1252238 -0.13022278 0.11438239
0.09834916 -0.13849254 0.0057245535 0.06861852 -0.029425643 0.054607626 -0.16516304 -0.09649034
-0.13750233 -0.053631946 0.110222414 -0.060067266 -0.058018886 0.12587966 0.07470183 -0.042175528
-0.10581443 -0.11628547 -0.029227616 0.13505343 0.0661255 0.13429743 -0.14820713 -0.05941519
-0.053239476 0.045957617 0.00043624095 -0.026680745 0.16825038 -0.09593653 -0.14263937 0.041442152
-0.036132704 -0.07918154 -0.02565371 -0.008378224 0.119765684 0.14938012 -0.092896186 0.14068681
0.16587731 -0.11211365 0.054237533 -0.016095566 0.007869322 -0.08238567 -0.11424862 0.17163742
0.12459367 0.05231743 0.051167075 0.077389665 0.11344587 0.087006606 0.14575602 0.13178316
-0.047095753 0.02467818 0.013561697 -0.011070228 -0.0169412 0.07470769 0.04813604 0.09482151
-0.120150276 -0.03957317 -0.033731703 -0.012043504 -0.055511404 0.05112771 0.14246958 -0.16842732
-0.11358436 0.13397494 0.13572729 0.14538217 0.10293242 0.14244293 0.09344114 0.07491352
0.002770776 0.07503224 -0.1486427 -0.023577685 0.1612253 -0.07621572 -0.16716927 -0.05124041
-0.035262372 0.17348532 -0.072600454 0.08049388 -0.072920725 0.067951 0.08108514 -0.13869804
0.0076911887 -0.13143183 -0.093568996 0.06277179 0.12042189 -0.10751534 -0.04137206 -0.11640034
-0.07058657 0.0778199 0.120032705 0.045831725 0.15474755 0.12058837 0.055473763 -0.16703987
-0.09030944 0.13151199 0.0027580054 0.14695887 -0.042863388 -0.0070503247 0.081728846 0.16333412
-0.10580853 0.14922519 -0.11314599 -0.10893424 0.12246605 0.072224736 0.095962934 0.040439986
0.09758953 -0.1304858 0.05759154 0.068108924 -0.14653769 0.0029178895 -0.071966715 -0.14482613
00000000: 9429 543c ee7e 733d a87a c9bd 2af4 3bbd
00000010: e877 163d 8703 2ebe c629 9ebd 2490 d6bc
00000020: 481a 083e eab5 c83c be4e 19be aa40 2ebe
00000030: c496 d1bd 5949 2fbb f911 04be 6633 293e
00000040: a05c 2fbe 499d 0cbe bf4c 8abd 864f adbd
00000050: cc45 823d a787 0fbc 0e4a 013e 9d53 d9bd
00000060: 3786 093e a80c e23d 044f 90bc 2e52 973d
00000070: a871 073e 457e 12bd 3740 fcbd c113 113e
00000080: f339 07be e043 0fbe cc47 673d 59a4 e13d
00000090: 06fb a03c b4be 1d3e 522e 5abd 1ea9 29be
000000a0: b01c 0ebe 6bc5 32be e701 073e 02ce 9a3d
000000b0: 6d23 6bbd ab97 1d3d 26d7 28be 9f7a 203e
000000c0: 6374 5fbd 8f4d a93d 6089 01be f052 9a3d
000000d0: 4f78 723c 0b84 d4bc f554 4b3d 6b68 d53d
000000e0: f125 13be 953d 06be 2529 0ebe da36 ff3c
000000f0: b09e 33bd 6c59 c73d f614 d03c 5cb5 ddbd
00000100: 17ea acbd 7ecd 2abd 8dec 863d c29d f5bd
00000110: a535 1fbe 2e70 ebbd a564 313e 436a 153e
00000120: 82bf 0cbe d83c 1a3c bce6 babb 2121 b4bc
00000130: 12ce bfbd 70a8 6d3d c080 a23d eb86 543b
00000140: ca59 06be 2d52 04be bf59 373b 179a 28be
00000150: f61f c43d 2a06 cebd cc7a 413d 513f a73b
00000160: 1858 153e 570e cc3d eae7 c93b a601 6dbd
00000170: 2a14 c8bb 0383 353d 588b 07bd 0614 30bc
00000180: 8b95 20be 52a9 69bd 3337 523d bc8e 173e
00000190: 1280 13be a065 243e 1f79 22be ee36 903c
000001a0: f248 1a3e 2905 f6bd 6f7a cbbd b131 943c
000001b0: c119 893d 0f8f 9b3d 1e6a 2fbd 7aa6 31bd
000001c0: 11a0 27be 32c7 d23d fc8f 263e 36e4 2a3d
000001d0: 082c 88bd ab3a 00be 1f59 05be 5141 ea3d
000001e0: 496b c93d fdd0 0dbe 0995 bb3b de87 8c3d
000001f0: 0c0e f1bc 3fac 5f3d 8020 29be ba9c c5bd
00000200: 69cd 0cbe 2cad 5bbd 4abc e13d 1809 76bd
00000210: 36a5 6dbd 99e6 003e 46fd 983d 3fc0 2cbd
00000220: 3cb5 d8bd 1427 eebd c16e efbc 724b 0a3e
00000230: ce6c 873d 4485 093e 9cc3 17be 585d 73bd
00000240: a311 5abd 0e3e 3c3d 45b7 e439 9491 dabc
00000250: d449 2c3e 5f7a c4bd 0e10 12be 3fbf 293d
00000260: e3ff 13bd ee29 a2bd bb27 d2bc d244 09bc
00000270: b647 f53d 1af7 183e 5b40 bebd 3410 103e
00000280: bedb 293e d79b e5bd 2d28 5e3d d9da 83bc
00000290: 54ee 003c d1b9 a8bd 2efb e9bd b8c1 2f3e
000002a0: f72a ff3d cd4a 563d 9194 513d 797e 9e3d
000002b0: 4f56 e83d 8530 b23d 1141 153e 2af2 063e
000002c0: 7ae7 40bd e529 ca3c e131 5e3c e75f 35bc
000002d0: 45c8 8abc 5800 993d 4c2a 453d c831 c23d
000002e0: 5911 f6bd 7a17 22bd 412a 0abd 1e52 45bc
000002f0: ed5f 63bd 4a6b 513d 8ce3 113e 3678 2cbe
00000300: eb9e e8bd ba30 093e 18fc 0a3e 10df 143e
00000310: 3cce d23d 8fdc 113e 125e bf3d 426c 993d
00000320: e895 353b 81aa 993d cb35 18be fd25 c1bc
00000330: 3f18 253e fd16 9cbd 6c2e 2bbe 77e1 51bd
00000340: 476f 10bd 23a6 313e 8caf 94bd fad9 a43d
00000350: 7657 95bd e529 8b3d f70f a63d dc06 0ebe
00000360: 5e06 fc3b 1196 06be 1aa1 bfbd 7f8e 803d
00000370: c09f f63d 0131 dcbd c075 29bd 4d63 eebd
00000380: b18f 90bd 0a60 9f3d b5d3 f53d 0cba 3b3d
00000390: 2476 1e3e 09f7 f63d 7538 633d 800c 2bbe
000003a0: 28f4 b8bd 14ab 063e a7bf 343b 637c 163e
000003b0: 8591 2fbd 6906 e7bb 7461 a73d 0f41 273e
000003c0: 24b2 d8bd 7dce 183e 16b9 e7bd ea18 dfbd
000003d0: 7bcf fa3d 90ea 933d 3788 c43d 66a4 253d
000003e0: 05dd c73d 129e 05be 1be5 6b3d b17c 8b3d
000003f0: fa0d 16be 103a 3f3b 4963 93bd 4d4d 14be

model.2.bias f4 [16]
0.035861846 0.056238037 0.15923877 0.035339374 -0.06427175 -0.007228248 0.14895701 -0.09535484
-0.112428255 -0.124669366 0.14514473 -0.06313851 0.024168056 0.010726204 -0.08132881 -0.088841595
00000000: dfe3 123d db59 663d 7d0f 233e 05c0 103d
00000010: e8a0 83bd f0da ecbb 3088 183e 6649 c3bd
00000020: c940 e6bd a752 ffbd d2a0 143e c34e 81bd
00000030: 16fc c53c f6bc 2f3c b88f a6bd 95f2 b5bd

model.4.weight f4 [1, 16]
0.016830683 0.024436086 0.05868554 0.1741175 0.006119728 -0.192954 0.07246548 0.1761243
0.2483815 -0.17214918 -0.044846 -0.08161545 -0.16733205 -0.13969865 -0.032442927 -0.21733674
00000000: 80e0 893c 302e c83c 4060 703d dc4b 323e
00000010: 0088 c83b bc95 45be c868 943d ee59 343e
00000020: b857 7e3e e047 30be 70b0 37bd 0026 a7bd
00000030: 1859 2bbe 2a0d 0fbe e0e2 04bd 868d 5ebe
